asset/mnist.tflite (tflite, 117216 bytes, 6 tensors)

sequential/conv2d_1/BiasAdd;sequential/conv2d_1/Conv2D;sequential/conv2d_1/BiasAdd/ReadVariableOp/resource f4 [64]
00000000: c4d3 8bbd a128 dbbc a0e0 15bd a5e2 50bd
00000010: 3105 343d 6ecb f2bc 2e68 c03c e689 64bd
00000020: 1a66 afbc 285d 8bbc d248 c3bb 9444 f1bc
00000030: acb6 1dbd 127a 6c3b 73ea 33bd cac0 a2bc
00000040: 27cd 99bd fb4c 38bd 5de6 993c 0dcb c33c
00000050: 7b9c 06bd 5173 7f3b e4b9 dc3b e427 8738
00000060: fc04 d4bc 2b55 99bd 3255 57bd c880 98bd
00000070: daa2 92bd 08bc a8bc 0e0b 2cbc a493 9d3b
00000080: 7d93 1fbd fb85 15ba e9a4 8bba d58d dcbc
00000090: 0cb5 683a 2939 92bd 95d1 a6bc 09a6 55bd
000000a0: 80db 2ebd 083c 8bbc c46a 4ebd fb22 9fbd
000000b0: 06e5 83bd ec44 e1bb bc3a 40bd 10d8 0abd
000000c0: 3333 04bb 98cb 683a 7cfa a3bd bdc3 61bc
000000d0: 8ea5 47bd 4ac0 49bd ab72 fc3c e5ca bebc
000000e0: 36e8 6bbd 2b51 b03b e1f8 bbbc 68cc cd3c
000000f0: 1e4d 1ebc 55a2 bfbc 26eb 13bd 4eb5 0a3c
-0.068275005 -0.026752772 -0.036591172 -0.050997395 0.043950263 -0.029638018 0.023487177 -0.055795573
-0.02141099 -0.017012194 -0.0059596086 -0.029451646 -0.038504288 0.0036083502 -0.04392476 -0.01986732
-0.07509833 -0.04499529 0.018786604 0.023900533 -0.032864075 0.0038978646 0.006736027 6.444732e-05
-0.025881283 -0.074869476 -0.052571483 -0.07446438 -0.07159968 -0.020597473 -0.0105006825 0.00480886
-0.038959015 -0.00057038636 -0.0010654005 -0.0269231 0.0008877076 -0.07139809 -0.020363608 -0.052160297
-0.0426898 -0.016996399 -0.05039479 -0.07770344 -0.06440167 -0.006874671 -0.046931013 -0.03389746
-0.0020172119 0.00088804355 -0.080067605 -0.013779578 -0.04874187 -0.049255647 0.030816397 -0.023290107
-0.0575945 0.0053807697 -0.022945823 0.025121883 -0.009661941 -0.023392836 -0.036112927 0.008466078

sequential/conv2d/BiasAdd;sequential/conv2d/Conv2D;sequential/conv2d/BiasAdd/ReadVariableOp/resource f4 [32]
00000000: 68bc 06be 9b41 51bd c437 843d fd1e 3b3d
00000010: 2a6c 0cbc 8053 313b 2825 16bc 20ca bfbc
00000020: 1389 15bd f192 34bc 19fa 9bbc 1070 3bbc
00000030: 949d a5bd 76da b2bc 192b c5bd faee 40bd
00000040: ad77 5ebc 8405 44bd f1dc 06bc 4aec 3fbc
00000050: f3c6 aebb 782d ceba 8c4c 36bc 44e8 8d38
00000060: f4ed 2cbc 6b4b f13c d916 aebd d59d 2dbd
00000070: fd09 e13c 321d 1dbd f55a a23c edf7 993d
-0.13157809 -0.051087957 0.06455949 0.04568385 -0.00857071 0.0027057827 -0.009164132 -0.02341181
-0.036507677 -0.011021362 -0.019040154 -0.011440292 -0.08086696 -0.021832686 -0.09627361 -0.047102906
-0.013578338 -0.047856823 -0.0082313875 -0.011714051 -0.005333775 -0.0015730103 -0.011126649 6.766667e-05
-0.010554779 0.029454907 -0.085004516 -0.04238685 0.027470583 -0.03835792 0.019818762 0.07517991

sequential/conv2d_1/Conv2D i1 [64, 3, 3, 32]
00000000: 1a15 d8d7 08c8 ce0e 12d0 06f3 f415 fff8
00000010: d005 f9f9 ed06 e0f0 1bcb 0fff 020f 000a
00000020: 11e7 d4f3 d3df e7f8 00b7 e326 3600 03f4
00000030: c610 ffe9 f610 0cf5 f2f4 2d15 fc37 fc03
00000040: 13d0 caea d8ed f8fd 19e3 cdd0 f7a0 fc11
00000050: fb18 0437 ff24 0a07 1a0a 0f1e 2e26 2503
00000060: f1e9 d9b3 dfa2 00e6 0ec7 f414 f8f6 f4e6
00000070: bde9 10f8 cb0d d3e3 17b2 0800 000f e406
00000080: 08fc c8d7 cb81 0212 08bf ef12 fde4 0cfa
00000090: b7e0 08ee e602 fddb edd6 0810 1811 e7fb
000000a0: efb2 9eb9 f0a3 f51e e9c5 c603 e192 02e3
000000b0: bbf6 3030 ea20 e9ed 06bd 010f 390d 0d0f
000000c0: 0ffd a288 e184 f5ed ecbd e426 e7d3 f010
000000d0: baed 2210 ccf7 9bc8 eb84 1d08 0909 e228
000000e0: 0cd8 bacb bd9d f8d5 fca4 ea10 ebc5 f1f0
000000f0: d1f9 08fb cafb b2d4 e6b2 0701 faf5 f5ec
26 21 -40 -41 8 -56 -50 14
18 -48 6 -13 -12 21 -1 -8
-48 5 -7 -7 -19 6 -32 -16
27 -53 15 -1 2 15 0 10
17 -25 -44 -13 -45 -33 -25 -8
0 -73 -29 38 54 0 3 -12
-58 16 -1 -23 -10 16 12 -11
-14 -12 45 21 -4 55 -4 3
19 -48 -54 -22 -40 -19 -8 -3
25 -29 -51 -48 -9 -96 -4 17
-5 24 4 55 -1 36 10 7
26 10 15 30 46 38 37 3
-15 -23 -39 -77 -33 -94 0 -26
14 -57 -12 20 -8 -10 -12 -26
-67 -23 16 -8 -53 13 -45 -29
23 -78 8 0 0 15 -28 6
8 -4 -56 -41 -53 -127 2 18
8 -65 -17 18 -3 -28 12 -6
-73 -32 8 -18 -26 2 -3 -37
-19 -42 8 16 24 17 -25 -5
-17 -78 -98 -71 -16 -93 -11 30
-23 -59 -58 3 -31 -110 2 -29
-69 -10 48 48 -22 32 -23 -19
6 -67 1 15 57 13 13 15
15 -3 -94 -120 -31 -124 -11 -19
-20 -67 -28 38 -25 -45 -16 16
-70 -19 34 16 -52 -9 -101 -56
-21 -124 29 8 9 9 -30 40
12 -40 -70 -53 -67 -99 -8 -43
-4 -92 -22 16 -21 -59 -15 -16
-47 -7 8 -5 -54 -5 -78 -44
-26 -78 7 1 -6 -11 -11 -20

sequential/conv2d/Conv2D f4 [32, 3, 3, 1]
00000000: 2220 b3bd 84cd 593d 9a48 283e a14d b43d
00000010: 964e 1abd a01a 18be b868 f83c 5bf4 5d3d
00000020: a2f9 16bc d5a2 6d3d cfc0 19be 08fd abbc
00000030: dfdc f9bd 27c2 ba3d 9b24 2d3e c6dc 97bd
00000040: a177 823b 5f97 283e 8ee0 81be 5177 c5be
00000050: 94bd 85be 3dd7 473e 6a5a 02bd 871f b73d
00000060: f756 373e 3f65 043e 0c55 383e e9a5 3d3d
00000070: 512e fe3d dca7 623e 1428 f73c cc00 103d
00000080: 2bee b23a c6dd cebe 9e5c 8dbe 6594 9dbe
00000090: d2c7 bbbe c24d 84bd 6485 5b3e 6164 b9bd
000000a0: 414a 9e3d 5a6f 883d 1815 56be 1d71 d3bc
000000b0: dc76 673d 9902 b7bc 05a4 af3c 0a89 1d3e
000000c0: a802 afbd 0782 223e e00d a93e abfb 92be
000000d0: 048e acbe a812 d8bd 34a6 613e c120 34be
000000e0: 4cfb cdbe 974f 453e aa66 0dbe 5449 18be
000000f0: b8b0 b03e 15a6 5b3e 5442 17bc 4681 663b
00000100: e511 b73d 6bb1 e2bd 27d4 a0bd 17ee 3f3e
00000110: c9bb 7c3e 1fc0 f03b eeab 62be 1ee0 c6bd
00000120: 28be e63d 1f37 febd 6fa5 1c3e 96be 51be
00000130: e0b6 173e ac56 eb3b 19b3 83bd 6d18 a43d
00000140: 6109 12be 74d4 a2bc cc9c 9f3d ca5b 753e
00000150: ec8b 43be 4d58 e2bd 4b52 8d3d 67ae 84be
00000160: ab99 a4bd 948a 1e3e f67d b6bd 64b7 0fbe
00000170: fa16 283e b5d8 84bd 5bba 023e fd23 823e
00000180: 5e35 fabd 3f67 f43c a578 d3bd 5144 3c3e
00000190: 7862 2dba f357 a6be 3a80 6e3e 3609 9ebe
000001a0: 6f95 ddbd c361 4dbd 6b69 70be e16e 4d3e
000001b0: f9aa 323e 8ffd 18be 9b53 05be f4a9 b8bd
000001c0: 7f44 c83d b9ed 033d af6b 263d 665e c6bd
000001d0: 593b b33d 6d87 bbbe 932a 0dbe 4c06 ad3d
000001e0: 0eed 48be fcbc 00bc 8d82 713e 37bc 703e
000001f0: 7b5e 643e 7bf7 853d bb93 14bd a10f 333d
00000200: b8f3 f13d 5bf3 b3bc cfee 41bd 5963 febd
00000210: ddd4 ef3c f9af b8bd be9b ed3c 7679 293d
00000220: ee06 07be b587 07be 37ad 653d 0c67 2bbe
00000230: fe45 083d f3c0 5b3e c69b 173e 01eb 1d3d
00000240: 9588 8fbc 9d7d b13d cc6e d93d ac26 8cbe
00000250: 4871 9abd 2276 523e 5927 1ebe d4cc 3bbe
00000260: a6a9 1f3e 33f8 e33d 7f2f 6fbe c0e5 5dbe
00000270: a261 dcbd 96d8 3d3e 83ee f23d 0238 013e
00000280: c606 483e 10e9 fc3c 2ed7 553e f76f 2f3d
00000290: d3bc 68be 3fff ff3d e58a 5e3d 2b6c adbe
000002a0: 8c88 763e 7eaa d3bd 0223 5fbd 6041 a3bd
000002b0: 60a7 303e df32 13be ead1 f7bc a4f5 c63d
000002c0: 6b8a b2be 5e3c 873e bcdf 5d3e aa5a fbbd
000002d0: cc6c 033e 7f8f 3a3e 381f ce3d 4aba 613d
000002e0: ce8b 713d 7d84 dcbd 38e6 9ebe 32a3 9fbe
000002f0: b639 7bbd 88b4 8b3e 4701 0e3e 8de1 b43d
00000300: d65d c13d 1600 c73d 16f5 8dbd 3254 25be
00000310: 6872 91be 9a37 60be f071 05ba 499e 1c3e
00000320: 0bbe 4d3e 87b7 37be 3def 32bd c955 933d
00000330: bd2a 5fbe b6f9 54be 42e8 aabd fa51 e53d
00000340: 546e 463d 32c8 fe3d 0ccf c2bb ae67 383e
00000350: ac07 513d cfc7 92be 6a00 9cbe aaca d7bd
00000360: c458 38be 7849 e13d b9d6 babd dd0c c73c
00000370: d4f0 bf3d 6d1d 1c3d ba53 5a3e 9146 613d
00000380: e2ef 4ebe e51f 583b f490 693e 0423 3a3e
00000390: 456a 90bd 6161 133b 04cd 8a3d edf7 9cbe
000003a0: 4ff2 babe 6309 7bbe 141c 573e b0c0 4f3e
000003b0: 27a1 bdbb b459 f03d b467 eebd 4c9b d43c
000003c0: 70bb 71bd 2882 90bd efb6 9c3d 18d5 98bd
000003d0: 9e80 a7bd fc87 803e f12f 7f3c b5a8 8a3e
000003e0: 424a 11bc 6132 813e 5192 b7bd 6b11 c4be
000003f0: f29a 4c3e 7ec2 263e dc4c 02be 020d 893e
-0.08746363 0.05317451 0.16433945 0.08803869 -0.0376726 -0.14853907 0.030323371 0.054188114
-0.009214791 0.058016617 -0.15014957 -0.020994678 -0.12200331 0.09119063 0.16908495 -0.07415156
0.003981546 0.16463993 -0.25366634 -0.38567594 -0.261212 0.195157 -0.031824507 0.0894156
0.17904268 0.12929247 0.18001193 0.046300802 0.12411178 0.22134346 0.030170478 0.03515701
0.0013651302 -0.40403575 -0.27609724 -0.3077728 -0.36675888 -0.064601436 0.21437603 -0.09052349
0.077290066 0.066618636 -0.20906484 -0.025810773 0.056509838 -0.022340106 0.021440515 0.15384308
-0.085454285 0.15869914 0.33018398 -0.28707632 -0.337021 -0.105504334 0.22036058 -0.1759062
-0.40230787 0.19268642 -0.13808694 -0.14871722 0.34509826 0.21450074 -0.009232122 0.0035172268
0.0893896 -0.11068996 -0.07852965 0.18743168 0.2468101 0.0073471214 -0.22135898 -0.09710716
0.11266738 -0.12412857 0.15297483 -0.20482859 0.14815855 0.007181963 -0.064306445 0.08012471
-0.1426139 -0.019876696 0.077935785 0.23960796 -0.19096345 -0.11051998 0.06900462 -0.25914308
-0.08037122 0.15482551 -0.08910744 -0.14034802 0.16415015 -0.06486646 0.12766401 0.25418082
-0.1221721 0.029834388 -0.103257455 0.18385436 -0.0006614099 -0.32488975 0.23291102 -0.30866402
-0.10819518 -0.05014206 -0.23477714 0.20061828 0.17448033 -0.14940475 -0.13020174 -0.09016791
0.097786896 0.032209132 0.04063004 -0.09685974 0.08751554 -0.3662676 -0.13785772 0.08448467
-0.19621679 -0.007857557 0.23584957 0.23509298 0.22301666 0.06541344 -0.0362737 0.043716077
0.11814064 -0.021966627 -0.047346886 -0.12421293 0.029276306 -0.09017939 0.029004928 0.0413756
-0.13186237 -0.13235362 0.056073394 -0.16738528 0.033269875 0.21460323 0.14805517 0.038554195
-0.017521182 0.08666537 0.10616836 -0.27373254 -0.07541138 0.20552877 -0.15444697 -0.18339854
0.1559206 0.111313246 -0.23357962 -0.21669674 -0.107608095 0.18539652 0.11861899 0.12619022
0.19533834 0.030872852 0.20882866 0.042831387 -0.2272828 0.12499856 0.05433168 -0.33871588
0.24075526 -0.10335253 -0.054476745 -0.07971454 0.17251348 -0.14374875 -0.030251462 0.09714821
-0.3487123 0.26413244 0.21667379 -0.12273152 0.12834471 0.18218802 0.10064548 0.0551093
0.05897122 -0.10767458 -0.31035018 -0.31179196 -0.061334334 0.27286172 0.13867675 0.08832083
0.09441726 0.09716813 -0.06931512 -0.16145399 -0.28407598 -0.2189621 -0.00050905254 0.15294756
0.20092027 -0.17941104 -0.043685187 0.071940966 -0.21793647 -0.20798382 -0.08345081 0.111972764
0.04844506 0.12440528 -0.005945092 0.180083 0.051032707 -0.28668067 -0.30469066 -0.10536702
-0.18002611 0.11000341 -0.09122986 0.024298126 0.09372106 0.038114 0.21321002 0.054998938
-0.20208696 0.0032977995 0.22809201 0.1817742 -0.07051519 0.0022488462 0.06777385 -0.30657902
-0.36512992 -0.245153 0.21006805 0.20288348 -0.005787033 0.117358595 -0.116408736 0.025952958
-0.059016645 -0.07056075 0.07652079 -0.074625194 -0.08178829 0.25103748 0.015575395 0.27081838
-0.008867802 0.2523375 -0.089634545 -0.3829454 0.19980982 0.1628513 -0.12724632 0.26767737

sequential/dense/BiasAdd/ReadVariableOp/resource f4 [10]
00000000: 0cb1 033b 6c0f 223e 4ea2 353d 690c 21bd
00000010: 42c1 39bd 7dfc 433d 6580 67bb a9f1 6f3d
00000020: 9cb5 05be 22a6 56bd
0.0020094542 0.15826195 0.04434424 -0.039318476 -0.04535032 0.047848213 -0.0035324332 0.058580074
-0.1305756 -0.05240453

sequential/dense/MatMul i1 [10, 9216] scale=0.004246783 zero_point=0
00000000: 0205 020d fbf9 e9fc fbfb 0811 0607 00e4
00000010: 06fe eef5 fef9 0303 f805 0002 f621 ecfd
00000020: 1306 13fc f2f6 fef8 f9f3 02fe fb03 12f1
00000030: 0903 0006 0202 e4fd 01fe edf9 f90b 0af7
00000040: faf6 fbf7 f1fd e9ef f0e9 e108 ff00 f0d4
00000050: ff03 f9fd f9fb f1ee f300 fade f60b f8f7
00000060: 141a 09fa e2e5 f9f4 fbf3 edfe f3fe f4fd
00000070: f4fe fefa f0fd f0fa f7f3 f0ed 0107 fdde
00000080: f7f0 ef00 eaf0 0cf2 e7f5 f2f5 04ef edeb
00000090: 0f0f ee08 f3f6 f7fa f6fe fce8 0809 f5f2
000000a0: 0404 0ef2 e7f4 f4f2 04f5 edfa fff3 0dff
000000b0: 00f3 f2f9 ecef 06f3 f3f4 de0d e70d 03ed
000000c0: e1e1 eb02 04f7 fced 18fb f2f3 fbfe f2e5
000000d0: 1d06 e407 f6f5 ee10 fcf5 08ff eb0c e804
000000e0: fe10 05f3 f8fd f2e6 eb01 fff8 f6f6 cccb
000000f0: 07ff f6d9 fbf8 f7f6 f5f5 e4fa f0f0 08e0
0.008493566 0.021233914 0.008493566 0.05520818 -0.021233914 -0.029727481 -0.09767601 -0.016987132
-0.021233914 -0.021233914 0.033974264 0.072195314 0.025480699 0.029727481 0.0 -0.118909925
0.025480699 -0.008493566 -0.07644209 -0.04671461 -0.008493566 -0.029727481 0.012740349 0.012740349
-0.033974264 0.021233914 0.0 0.008493566 -0.04246783 0.14014384 -0.08493566 -0.012740349
0.08068888 0.025480699 0.08068888 -0.016987132 -0.059454963 -0.04246783 -0.008493566 -0.033974264
-0.029727481 -0.05520818 0.008493566 -0.008493566 -0.021233914 0.012740349 0.07644209 -0.06370174
0.038221046 0.012740349 0.0 0.025480699 0.008493566 0.008493566 -0.118909925 -0.012740349
0.004246783 -0.008493566 -0.08068888 -0.029727481 -0.029727481 0.04671461 0.04246783 -0.038221046
-0.025480699 -0.04246783 -0.021233914 -0.038221046 -0.06370174 -0.012740349 -0.09767601 -0.072195314
-0.06794853 -0.09767601 -0.13165027 0.033974264 -0.004246783 0.0 -0.06794853 -0.18685845
-0.004246783 0.012740349 -0.029727481 -0.012740349 -0.029727481 -0.021233914 -0.06370174 -0.07644209
-0.05520818 0.0 -0.025480699 -0.14439063 -0.04246783 0.04671461 -0.033974264 -0.038221046
0.08493566 0.11041636 0.038221046 -0.025480699 -0.12740348 -0.11466314 -0.029727481 -0.050961398
-0.021233914 -0.05520818 -0.08068888 -0.008493566 -0.05520818 -0.008493566 -0.050961398 -0.012740349
-0.050961398 -0.008493566 -0.008493566 -0.025480699 -0.06794853 -0.012740349 -0.06794853 -0.025480699
-0.038221046 -0.05520818 -0.06794853 -0.08068888 0.004246783 0.029727481 -0.012740349 -0.14439063
-0.038221046 -0.06794853 -0.072195314 0.0 -0.09342922 -0.06794853 0.050961398 -0.059454963
-0.106169574 -0.04671461 -0.059454963 -0.04671461 0.016987132 -0.072195314 -0.08068888 -0.089182444
0.06370174 0.06370174 -0.07644209 0.033974264 -0.05520818 -0.04246783 -0.038221046 -0.025480699
-0.04246783 -0.008493566 -0.016987132 -0.101922795 0.033974264 0.038221046 -0.04671461 -0.059454963
0.016987132 0.016987132 0.059454963 -0.059454963 -0.106169574 -0.050961398 -0.050961398 -0.059454963
0.016987132 -0.04671461 -0.08068888 -0.025480699 -0.004246783 -0.05520818 0.05520818 -0.004246783
0.0 -0.05520818 -0.059454963 -0.029727481 -0.08493566 -0.072195314 0.025480699 -0.05520818
-0.05520818 -0.050961398 -0.14439063 0.05520818 -0.106169574 0.05520818 0.012740349 -0.08068888
-0.13165027 -0.13165027 -0.089182444 0.008493566 0.016987132 -0.038221046 -0.016987132 -0.08068888
0.101922795 -0.021233914 -0.059454963 -0.05520818 -0.021233914 -0.008493566 -0.059454963 -0.11466314
0.123156704 0.025480699 -0.118909925 0.029727481 -0.04246783 -0.04671461 -0.07644209 0.06794853
-0.016987132 -0.04671461 0.033974264 -0.004246783 -0.089182444 0.050961398 -0.101922795 0.016987132
-0.008493566 0.06794853 0.021233914 -0.05520818 -0.033974264 -0.012740349 -0.059454963 -0.11041636
-0.089182444 0.004246783 -0.004246783 -0.033974264 -0.04246783 -0.04246783 -0.22083272 -0.22507949
0.029727481 -0.004246783 -0.04246783 -0.16562453 -0.021233914 -0.033974264 -0.038221046 -0.04246783
-0.04671461 -0.04671461 -0.118909925 -0.025480699 -0.06794853 -0.06794853 0.033974264 -0.13589706
